…
        Vector Observation space size (per agent): 8
        Number of stacked Vector Observation: 3
        Vector Action space type: continuous
        Vector Action space size (per agent): 2
        Vector Action descriptions: , 
Number of agents: 2
Number of actions: 2
States look like: [ 0.          0.          0.          0.          0.          0.          0.
  0.          0.          0.          0.          0.          0.          0.
  0.          0.         -6.65278625 -1.5        -0.          0.
  6.83172083  6.         -0.          0.        ]
States have length: 24
Seed used: 0
Agent 0 - Actor Local TD3 -> Actor(
  (l1): Linear(in_features=24, out_features=400, bias=True)
  (l2): Linear(in_features=400, out_features=300, bias=True)
  (l3): Linear(in_features=300, out_features=2, bias=True)
)
Agent 0 - Actor Target TD3 -> Actor(
  (l1): Linear(in_features=24, out_features=400, bias=True)
  (l2): Linear(in_features=400, out_features=300, bias=True)
  (l3): Linear(in_features=300, out_features=2, bias=True)
)
Agent 0 - Twin Critic Local TD3 -> TwinCritic(
  (l1): Linear(in_features=26, out_features=400, bias=True)
  (l2): Linear(in_features=400, out_features=300, bias=True)
  (l3): Linear(in_features=300, out_features=1, bias=True)
  (l4): Linear(in_features=26, out_features=400, bias=True)
  (l5): Linear(in_features=400, out_features=300, bias=True)
  (l6): Linear(in_features=300, out_features=1, bias=True)
)
Agent 0 - Twin Critic Target TD3 -> TwinCritic(
  (l1): Linear(in_features=26, out_features=400, bias=True)
  (l2): Linear(in_features=400, out_features=300, bias=True)
  (l3): Linear(in_features=300, out_features=1, bias=True)
  (l4): Linear(in_features=26, out_features=400, bias=True)
  (l5): Linear(in_features=400, out_features=300, bias=True)
  (l6): Linear(in_features=300, out_features=1, bias=True)
)
Agent 1 - Actor Local TD3 -> Actor(
  (l1): Linear(in_features=24, out_features=400, bias=True)
  (l2): Linear(in_features=400, out_features=300, bias=True)
  (l3): Linear(in_features=300, out_features=2, bias=True)
)
Agent 1 - Actor Target TD3 -> Actor(
  (l1): Linear(in_features=24, out_features=400, bias=True)
  (l2): Linear(in_features=400, out_features=300, bias=True)
  (l3): Linear(in_features=300, out_features=2, bias=True)
)
Agent 1 - Twin Critic Local TD3 -> TwinCritic(
  (l1): Linear(in_features=26, out_features=400, bias=True)
  (l2): Linear(in_features=400, out_features=300, bias=True)
  (l3): Linear(in_features=300, out_features=1, bias=True)
  (l4): Linear(in_features=26, out_features=400, bias=True)
  (l5): Linear(in_features=400, out_features=300, bias=True)
  (l6): Linear(in_features=300, out_features=1, bias=True)
)
Agent 1 - Twin Critic Target TD3 -> TwinCritic(
  (l1): Linear(in_features=26, out_features=400, bias=True)
  (l2): Linear(in_features=400, out_features=300, bias=True)
  (l3): Linear(in_features=300, out_features=1, bias=True)
  (l4): Linear(in_features=26, out_features=400, bias=True)
  (l5): Linear(in_features=400, out_features=300, bias=True)
  (l6): Linear(in_features=300, out_features=1, bias=True)
)
Device used: cuda:0
Score: 0.00/-0.01 -> Ep. 1/500 - Avg Max Global Score: 0.00 - time: 0:00:00.148966
Score: -0.01/0.00 -> Ep. 2/500 - Avg Max Global Score: 0.00 - time: 0:00:01.588987
Score: 0.00/-0.01 -> Ep. 3/500 - Avg Max Global Score: 0.00 - time: 0:00:00.119335
Score: -0.01/0.00 -> Ep. 4/500 - Avg Max Global Score: 0.00 - time: 0:00:00.123695
Score: 0.00/0.09 -> Ep. 5/500 - Avg Max Global Score: 0.02 - time: 0:00:00.267069
…
